global_models/tsk/TSK_global_model_rules_conseq.npy (npy, 812 bytes, 1 tensors)

array f4 [19, 9]
00000000: 1a7d 35bf 7083 bd3e bd98 5d3f a38d 56bd
00000010: 4fa4 80bd 64d5 10bf 463d 403f 3eb6 0f3e
00000020: 8903 453f 8288 f3bf ed59 07bf b1ac 843f
00000030: ac6a 3ebb 21a8 a63e 8d16 10be d551 2a40
00000040: de3c 993f 56e3 9f3f c1d3 88bf 4f41 23be
00000050: ab74 353f fe52 073f 3b19 313e 1db1 0bbf
00000060: 4993 713f af8b 323e ff2f c03f 5f34 52bf
00000070: 6bbd e7bc fc7b df3f 886c 11be ad0e 223f
00000080: 4f34 96bf 8906 3fbe cbd7 0d3f 2ad9 5c3f
00000090: 24da 88bf 1acb 0b3f 5c04 953f e970 ecbe
000000a0: 96a6 0c3f d362 a5bf fc18 893f c635 273f
000000b0: 5234 3c40 a3a9 fd3e acad 71bf c5c4 4e3e
000000c0: 7e62 5c3f ac4e 8540 13c7 d2bf e719 76c0
000000d0: 11f4 c6bf 831e 0e40 bd6a 9fbf 522d 04c0
000000e0: d986 183f 6115 e93e b861 7040 b94f 803f
000000f0: 2f0e 8ebf 6741 55be ad17 0b40 b43b bcbf
00000100: 99c9 cebe c7db d83f 9ba4 2bbe 2788 a6bf
00000110: 8c97 013f a897 0b40 79a1 6d3e 566e 483e
00000120: 0a1b 11bf 6571 1b3f f213 6a3f 1e29 23bf
00000130: bc0f 62be 0568 f0be 4b15 803f 9e1f 1e3e
00000140: 2ba4 323f 6e94 f5be 9878 b73e f5c6 913f
00000150: 0dd9 8dbf 64b8 d23c 408e 70bf 3db4 cb3f
00000160: 91e4 2a3f b92f 6cbe 09f1 8e3d 408c 5c3f
00000170: 2898 813f 7e88 afbf e4dc c73e 9307 6fbf
00000180: 0596 c6be 408b aa3f b558 133f e59d b3bf
00000190: 626c 523f 5d5d fc3f 21a5 69bf 4cdb 273f
000001a0: cf01 4cbf 000f 1f40 d845 80bd 59c3 6abf
000001b0: deeb 48bf 4772 d53d 8884 0540 f1e0 33bf
000001c0: 57ad a43f d5ae 04bf 7c5d 04bf c4f0 213d
000001d0: 3c34 2b3f fa52 92bf 95c5 803f 3d69 233f
000001e0: 34c0 bbbb 1664 223f 25e9 58bd 4c21 963f
000001f0: 6d3e 8d3f fef8 fcbe 7a60 babf 74dc b63f
00000200: 78ed 983f b378 903f 0936 553f 6943 b0bf
00000210: 6f12 db3d 2623 393f 2625 75bf 99d2 a6be
00000220: dbd0 db3e c034 2d3f cdb9 92bf 4246 713f
00000230: e85d 99bf f9f5 b03f 8a1b 36bf 422e 4d3f
00000240: 1e19 0cc0 d3dc 6640 9c7c 0240 7a5e 01c0
00000250: b1cd 3d3f ada9 1fc0 7448 5b40 18ef 1f3f
00000260: 8873 c4bf a067 59bf 7c1a 933f 7ca5 1e40
00000270: cf12 2ac0 dfc5 1bc0 9cd6 20c0 7c4f 5540
00000280: be97 ad3f 689e c6bd a547 45c0 0f8f 5a3f
00000290: e997 713e 467e 9d3f af89 3840 4189 d13f
000002a0: dee8 d93f 999b cc3f 0268 45be
-0.70894015 0.3701434 0.86561185 -0.05238117 -0.062813394 -0.5657561 0.75093496 0.14034364
0.7695852 -1.9026034 -0.5287159 1.0365201 -0.002905528 0.32550147 -0.14071102 2.6612446
1.19717 1.2491252 -1.0689622 -0.15942882 0.70881146 0.5286101 0.17294781 -0.5456713
0.94365364 0.17436098 1.5014647 -0.8211116 -0.028288564 1.7459712 -0.14201558 0.63303643
-1.1734713 -0.18654837 0.554074 0.86268866 -1.0691571 0.54606783 1.1641955 -0.46179894
0.5494169 -1.2920784 1.071075 0.65316427 2.9406934 0.49543485 -0.9440563 0.20192249
0.8608779 4.1658535 -1.6467003 -3.845331 -1.5543233 2.2206123 -1.2454449 -2.0652661
0.5958076 0.45524123 3.7559643 1.002433 -1.1098078 -0.2082573 2.17332 -1.470572
-0.40388182 1.6942071 -0.16762011 -1.30103 0.5062187 2.1811314 0.23206128 0.1957334
-0.56681883 0.607199 0.91436684 -0.63734615 -0.22076315 -0.4695436 1.0006498 0.15441748
0.6978175 -0.47964805 0.35834193 1.1388842 -1.1081864 0.02572269 -0.93967056 1.5914379
0.66755015 -0.2306508 0.069795676 0.86151505 1.0124559 -1.3713529 0.39035714 -0.9337093
-0.3878633 1.3323746 0.5755723 -1.403256 0.8219663 1.9715992 -0.9126759 0.65568995
-0.7969026 2.4852905 -0.06263322 -0.91704327 -0.78484905 0.10422187 2.086214 -0.7026511
1.2865399 -0.5182927 -0.51705146 0.039536253 0.6687658 -1.1431572 1.0060297 0.63832456
-0.0057296995 0.6343397 -0.05295672 1.1728911 1.1034676 -0.49408716 -1.4560692 1.4286027
1.194747 1.1286834 0.83285576 -1.3770572 0.10696875 0.7231926 -0.9575981 -0.32582548
0.42932782 0.67658615 -1.1462952 0.9424783 -1.1981783 1.3825065 -0.7113577 0.8014871
-2.189033 3.607228 2.0388556 -2.0213914 0.74141985 -2.4947312 3.4262972 0.62474203
-1.5347757 -0.84923744 1.1492457 2.4788504 -2.657398 -2.433952 -2.5130987 3.3329763
1.3561933 -0.09698182 -3.0824978 0.8537454 0.23593105 1.230416 2.8834035 1.6370012
1.702419 1.5984985 -0.19277957
