global_models/tsk/TSK_global_model_rules_conseq.npy (npy, 8136 bytes, 1 tensors)

array f4 [91, 22]
0	0x42898ffc	68.78122
1	0xbd9943e9	-0.07483656
2	0xbce32d16	-0.02773146
3	0xc0089953	-2.1343582
4	0x400d3d17	2.2068536
5	0x4239ac06	46.41799
6	0xc0c062de	-6.0120687
7	0x41e28266	28.313671
8	0x40bf75ec	5.9831448
9	0xc1b1b5d9	-22.213793
10	0xc03b5310	-2.9269447
11	0xc287d918	-67.92401
12	0xbf000801	-0.50012213
13	0x403b53ff	2.9270017
14	0xc10582a3	-8.344394
15	0xc2394784	-46.31984
16	0xc147e979	-12.4945
17	0xc14f6ac4	-12.963566
18	0x40f4c92f	7.6495585
19	0xc1935535	-18.416605
20	0x41eb4f62	29.413761
21	0x3f68da46	0.9095806
22	0x4271530f	60.331112
23	0x3cfc3174	0.0307853
24	0x3e8bb168	0.27283788
25	0xc06631ed	-3.5967972
26	0xbfda501a	-1.7055695
27	0x43e12788	450.30884
28	0x3f88a103	1.0674137
29	0x4171cc9c	15.112453
30	0x3fa1974e	1.26243
31	0xc2520f38	-52.514862
32	0xc1019987	-8.099982
33	0xc3ced3da	-413.6551
34	0x3f58df98	0.84716177
35	0x3f28c6a9	0.6592813
36	0xc0dcaa49	-6.895787
37	0xc18cc2c6	-17.595104
38	0xc11a6ee5	-9.652074
39	0xc1cbabfc	-25.458977
40	0x417ae989	15.682015
41	0xc23a6e51	-46.60773
42	0x423fea85	47.979023
43	0xc1c78fe7	-24.945265
44	0x428dcf7a	70.90523
45	0xbd9a51e1	-0.075351484
46	0x3db453f0	0.08805072
47	0xc07fcb00	-3.9967651
48	0xc091982a	-4.5498247
49	0x43203391	160.20143
50	0xc095953a	-4.674466
51	0x40a308a8	5.0948067
52	0xbe6dc529	-0.23219742
53	0xc2347dc6	-45.122826
54	0xbefe5165	-0.49671474
55	0xc32a97c0	-170.59277
56	0xc01691fc	-2.3526602
57	0x40f18d20	7.548477
58	0xbfe60e41	-1.79731
59	0xc210f0f9	-36.235325
60	0x3fd5c467	1.6700562
61	0x4138fb01	11.56128
62	0x42feaa4f	127.332634
63	0xc30a0659	-138.0248
64	0x422c4029	43.062656
65	0xc1cc170b	-25.511251
66	0x426493e7	57.144436
67	0xbbf08cc8	-0.007341001
68	0x3d8351d1	0.064120896
69	0xc047cf1b	-3.1220157
70	0xc10b0d5c	-8.690762
71	0x43ce10e7	412.13205
72	0xc0799541	-3.8997347
73	0x414d11bb	12.816829
74	0xbf254c88	-0.645699
75	0xc11bea05	-9.744634
76	0xbf9e47a3	-1.2365612
77	0xc3f39aea	-487.21027
78	0xbfa6ea67	-1.3040284
79	0x404d23da	3.2053132
80	0x3f8a580c	1.080812
81	0xc1db9e0f	-27.452177
82	0xc153b214	-13.230976
83	0x4125f8b1	10.373216
84	0x42cc520e	102.16026
85	0xc2e1e979	-112.956
86	0x41b8f6b7	23.120466
87	0x40aafa76	5.343074
88	0x42d53cf2	106.61903
89	0xbe687bcb	-0.22703473
90	0x3e0d8ae2	0.13822511
91	0xc070b11f	-3.7608106
92	0x408d3725	4.4129815
93	0xc5e35c2e	-7275.5225
94	0xc0506c84	-3.2566233
95	0xc05b17a8	-3.4233189
96	0xbfacdeb4	-1.3505464
97	0xc2c4f2f9	-98.474556
98	0x3e422c5f	0.18962239
99	0x45ef7583	7662.689
100	0xc0403493	-3.0032089
101	0x4113ff72	9.249865
102	0x3f877bb5	1.0584627
103	0xc28cb4b4	-70.352936
104	0xc0d39601	-6.612061
105	0x42e11c74	112.55557
106	0x44354f4d	725.2391
107	0xc4456dd1	-789.7159
108	0x413f5213	11.957538
109	0xc18ba1d7	-17.454023
110	0xc17af43d	-15.6846285
111	0xbd94e5f0	-0.072704196
112	0xbc0765f3	-0.008264053
113	0x40a9dd96	5.308299
114	0xc177dfa2	-15.492098
115	0xc4abd4da	-1374.6516
116	0x415c1251	13.754472
117	0xc1c9ebb8	-25.240097
118	0x3cc94815	0.024570504
119	0x41249d11	10.288346
120	0x3f2b7a88	0.6698384
121	0x44b76278	1467.0771
122	0xc036359d	-2.8470223
123	0xc05f0e34	-3.485242
124	0x3fd70a35	1.679999
125	0xc00e5fca	-2.2245965
126	0x41baaca4	23.334297
127	0x427ff257	63.98666
128	0x424b71ee	50.86126
129	0x4267c1ed	57.93938
130	0x42d60906	107.017624
131	0xc13f1617	-11.942893
132	0x424bbc2d	50.933765
133	0xbda1006b	-0.07861408
134	0xbb5047c0	-0.0031781048
135	0x3f87fa53	1.0623268
136	0xc01ff453	-2.4992874
137	0xc1b6436d	-22.782923
138	0x412ff51d	10.997342
139	0x4181dc63	16.23261
140	0x4009fd80	2.1560974
141	0x41a43954	20.527992
142	0x40a64956	5.196452
143	0xc0a3ad7c	-5.1149273
144	0xc0a2c97a	-5.0870943
145	0xc0264996	-2.5982413
146	0xbe057da6	-0.13036212
147	0xc1f629a2	-30.770329
148	0xc00aa39d	-2.1662362
149	0x4081aa11	4.05201
150	0xc2950bd6	-74.52312
151	0x42b4bdce	90.37071
152	0x40c5eedc	6.1854076
153	0x4207b610	33.927795
154	0x42901688	72.04401
155	0xbdca5abc	-0.098805875
156	0xbcdff913	-0.027340448
157	0xbead438f	-0.33840606
158	0xc10b2fa8	-8.699135
159	0x42c18824	96.7659
160	0x3ea2e923	0.31818494
161	0xc18eab77	-17.833723
162	0xc02a887e	-2.6645808
163	0xc0612e9e	-3.5184703
164	0x3e231f62	0.1592994
165	0xc2f2a79e	-121.32738
166	0x3fcaf211	1.5855123
167	0x3c9ccba2	0.019140068
168	0xbfc7e0ff	-1.5615538
169	0xc1ddac15	-27.709024
170	0x41b3ad5c	22.459648
171	0x40d9e957	6.809734
172	0xc2d7a5b3	-107.82363
173	0x42de60e9	111.18928
174	0x418b4798	17.409958
175	0x4050f3e6	3.2648864
176	0x426b3abf	58.80737
177	0x3d0d7803	0.03453828
178	0x3e91d1aa	0.28480273
179	0xbf6094a1	-0.8772679
180	0x3dc54a29	0.096332856
181	0x437a2bfa	250.17178
182	0x3ed7986c	0.42108476
183	0x40a3f691	5.1238484
184	0xc04a8906	-3.1646132
185	0xc13c70cd	-11.777539
186	0xbdb9bf00	-0.090696335
187	0xc3661025	-230.06306
188	0x3e85d561	0.26139358
189	0xbf4b7e45	-0.79489547
190	0x4009abf6	2.1511207
191	0x41a1f74b	20.245749
192	0xc12ddf22	-10.866976
193	0xc20d44f0	-35.31732
194	0xc0393f20	-2.8944778
195	0xc28e5bd1	-71.17933
196	0x41de35cd	27.77627
197	0xc058cfb7	-3.387678
198	0x428a8d74	69.276276
199	0xbe3c162d	-0.18367834
200	0x3e2d40f9	0.16919316
201	0xc032bb13	-2.792668
202	0xc0faa21b	-7.8322883
203	0x447f10fd	1020.26544
204	0xbfaabea4	-1.3339429
205	0x42129f16	36.655357
206	0xc01cc9d2	-2.4498181
207	0x41af80d4	21.937904
208	0xbf8475cf	-1.0348452
209	0xc48c67f4	-1123.2485
210	0xbfa85459	-1.3150741
211	0x3f80f0b5	1.0073458
212	0x3e8def50	0.27721643
213	0xc1cf2757	-25.894209
214	0xc1d01f28	-26.015213
215	0xbfce719b	-1.612842
216	0x402d393a	2.7066178
217	0xc044515b	-3.0674655
218	0x412e1e82	10.882448
219	0x40bbd4ab	5.8697104
220	0x427aeb14	62.72957
221	0xbd994e47	-0.07485633
222	0x3e0591c7	0.13043891
223	0xbff0d732	-1.8815672
224	0xc09d4ada	-4.915387
225	0x43ef6504	478.78918
226	0xc086ec4d	-4.2163453
227	0x4120ff6b	10.062358
228	0xbfd06eca	-1.628381
229	0xc026b069	-2.6045172
230	0x3e3768cb	0.17911069
231	0xc40282e3	-522.0451
232	0xbf1b9aca	-0.60783064
233	0x40a33136	5.099757
234	0xbe6a8668	-0.22902834
235	0xc102529e	-8.14517
236	0xc0fad082	-7.8379526
237	0x4091dda7	4.558307
238	0x429469f7	74.20696
239	0xc2c5b258	-98.84833
240	0x41f7aa60	30.95819
241	0xc0dafb79	-6.8431973
242	0x426a67ce	58.60137
243	0xbc6564fe	-0.014001129
244	0x3e351942	0.17685416
245	0xbfbf4e8d	-1.4945847
246	0xc03983b2	-2.898663
247	0x43859ed8	267.24097
248	0xc08ab5bb	-4.334684
249	0xc07fe8ba	-3.9985795
250	0xc000937c	-2.0090017
251	0xc14570b5	-12.340016
252	0x3f83f13b	1.0307993
253	0xc37db8e8	-253.72229
254	0x3f639144	0.8889353
255	0x4114d9dd	9.303189
