global_models/tsk/TSK_global_model_rules_conseq.npy (npy, 8048 bytes, 1 tensors)

array f4 [90, 22]
0	0x42522aa4	52.54164
1	0xbbbc9267	-0.005754757
2	0xbe0784a1	-0.13234188
3	0x3d56486d	0.052315164
4	0xc01aec05	-2.4206555
5	0x4293c35c	73.88156
6	0xc0a3f935	-5.124171
7	0x3f387697	0.72055954
8	0xc032ff45	-2.7968304
9	0xc053e892	-3.31107
10	0x3fa80e39	1.312934
11	0xc2f845ab	-124.13607
12	0xbf98ee14	-1.1947656
13	0x41896688	17.175064
14	0x3fe90582	1.8204806
15	0xc23a6058	-46.594086
16	0x403985df	2.8987958
17	0x42451c30	49.277527
18	0x440946e9	549.108
19	0xc411e1d0	-583.5283
20	0x4186a43a	16.830189
21	0x4148197f	12.506225
22	0x42716378	60.347137
23	0xbcc50d90	-0.024054319
24	0x3e172d0f	0.14763282
25	0xc01582e4	-2.336114
26	0xc0c2121b	-6.06471
27	0x43eab3ec	469.40564
28	0xc04fc389	-3.2463095
29	0x41f37d30	30.436127
30	0xc003d5e1	-2.0599291
31	0x406f9e27	3.7440279
32	0xc07ea899	-3.9790404
33	0xc4036a60	-525.6621
34	0xbf017e41	-0.50583273
35	0x40b15a31	5.5422597
36	0x400f5cf2	2.240048
37	0xc21733bc	-37.80052
38	0xc1e1a40e	-28.205105
39	0xc192e464	-18.361519
40	0x40124315	2.2853444
41	0xc169787b	-14.591914
42	0x41f0cbc8	30.099503
43	0xc0ee82dc	-7.453474
44	0x424e3203	51.54884
45	0x3d2bf2a4	0.041979447
46	0x3d9fd4f1	0.07804287
47	0xc014ee40	-2.3270416
48	0xc0b6c64d	-5.7117066
49	0x43ac7a43	344.95517
50	0xc058c54a	-3.3870416
51	0x41a7490c	20.910667
52	0xbf56f0fa	-0.8396145
53	0xbff5a867	-1.9192017
54	0xc015f858	-2.3432827
55	0xc3d6e34f	-429.77585
56	0xbfb08296	-1.3789852
57	0x40794dbb	3.8953693
58	0x3faa5bd6	1.3309276
59	0xc1f8979b	-31.074026
60	0xc1a8617b	-21.047598
61	0xc0e2f2ad	-7.0921235
62	0x4309c530	137.77026
63	0xc3185b30	-152.3562
64	0x41cc3286	25.52467
65	0x40e82511	7.2545247
66	0x423362c6	44.84646
67	0x3d49be44	0.049253717
68	0xbe5ad8e7	-0.21371804
69	0xbfbcfc32	-1.4764464
70	0xc0852e41	-4.161896
71	0x4491b16f	1165.5448
72	0xc0a2b239	-5.0842557
73	0xc194c4ea	-18.59615
74	0xc07f47e8	-3.9887638
75	0x414af849	12.6856165
76	0x40c81cfa	6.253537
77	0xc4a5eb9a	-1327.3625
78	0xc050b859	-3.2612517
79	0x41013d6c	8.077496
80	0x3ffcee63	1.976025
81	0xc20769c5	-33.85329
82	0x41bad2fb	23.353018
83	0x424a9e17	50.654385
84	0x43896f93	274.87167
85	0xc3894fea	-274.62433
86	0x41a5dadc	20.731865
87	0x417e9121	15.910432
88	0x410f47d4	8.955036
89	0xbdcdc52a	-0.10047372
90	0x3f03b059	0.5144096
91	0xbf82b4be	-1.0211408
92	0x41bc80e7	23.56294
93	0xc59f797c	-5103.1855
94	0xbfbfabf5	-1.4974352
95	0xc1aecef4	-21.851051
96	0xc1271038	-10.44146
97	0xc21667d6	-37.601402
98	0xbf414837	-0.75500816
99	0x45cca87b	6549.06
100	0xc083018b	-4.0939384
101	0xc1278753	-10.470538
102	0xc0b86093	-5.761789
103	0xc25b6580	-54.84912
104	0x41b90c24	23.130928
105	0xc23b16c2	-46.772224
106	0x41a98d44	21.193977
107	0x41be4170	23.781952
108	0x42cc2e7c	102.09079
109	0xc10cb518	-8.794212
110	0x42d6221d	107.06663
111	0xbe385e7c	-0.18004793
112	0x3e5c2f55	0.2150243
113	0xc0b6aeb5	-5.7088265
114	0x4140399b	12.014064
115	0xc61bdca8	-9975.164
116	0xc11db36e	-9.856306
117	0xbf157155	-0.58376056
118	0xc0887511	-4.2642903
119	0xc300100a	-128.06265
120	0xbec4cbcb	-0.38436732
121	0x46314469	11345.103
122	0x40b69514	5.705698
123	0xc10f2b22	-8.94803
124	0xbf5e0519	-0.8672653
125	0xc29eedd2	-79.46449
126	0xc08b5086	-4.3535795
127	0x42c74148	99.6275
128	0x441c8f4c	626.239
129	0xc4306963	-705.64667
130	0x411208a6	9.127111
131	0xc138a367	-11.539893
132	0x41c5cbf1	24.72458
133	0x3d037bd2	0.032100506
134	0x3ea8d1f1	0.32972673
135	0xbf93da55	-1.1551005
136	0x4141eeee	12.120832
137	0xc5076ffa	-2166.9985
138	0xbfc11963	-1.5085872
139	0xc018e040	-2.3886871
140	0xc0392a74	-2.8932161
141	0xc237c086	-45.93801
142	0xbe617fe6	-0.22021446
143	0x45347746	2887.4546
144	0xc0899123	-4.298967
145	0xc1147552	-9.278643
146	0xc0e0c2b6	-7.0237684
147	0xc234150e	-45.02056
148	0xbfddda93	-1.7332329
149	0xc1582929	-13.510049
150	0xc2e883f8	-116.25775
151	0x4301bb54	129.73175
152	0x42a9fcc0	84.99365
153	0xc11e15c2	-9.880312
154	0x42663d84	57.560074
155	0x3c74c320	0.0149391
156	0xbd464d6d	-0.048413683
157	0xbf8f06db	-1.1173967
158	0xc0f0d213	-7.525644
159	0x42f5d971	122.92469
160	0x3ea40240	0.32032967
161	0x41618b71	14.096543
162	0xbfbd3e6f	-1.4784678
163	0xc0596912	-3.397038
164	0x3f290839	0.6602817
165	0xc2c5cb95	-98.89762
166	0xbec9295b	-0.39289364
167	0xc0c0b15c	-6.0216503
168	0xbf09f7c1	-0.5389367
169	0xc24058ea	-48.08683
170	0xc15833aa	-13.512613
171	0xc133a618	-11.22805
172	0xc1cd18ad	-25.637049
173	0xbf66062d	-0.89853173
174	0x3facfcc4	1.3514638
175	0x421bc554	38.942703
176	0x4266729a	57.611916
177	0xbcaf9095	-0.021431247
178	0x3e95485b	0.29156765
179	0x3e25117f	0.16119955
180	0xbebb8d15	-0.36631075
181	0x441713f3	604.3117
182	0xc0003e3f	-2.0037992
183	0x4096531c	4.697645
184	0xc03bf8ac	-2.9370527
185	0xc1b28523	-22.315008
186	0x3f28d811	0.6595469
187	0xc40d6b16	-565.6732
188	0x3e84c033	0.25927886
189	0xc0e0586c	-7.0107937
190	0x3fdd23cd	1.727655
191	0xc1a621b4	-20.766457
192	0xc12aaca9	-10.667153
193	0xc2577ab9	-53.869846
194	0xc26878a6	-58.11782
195	0x40d0d678	6.5261803
196	0x40a40345	5.125399
197	0x4202b5e5	32.67763
198	0x426af948	58.74344
199	0xbcd5f8d9	-0.026119636
200	0xbd4a4e2d	-0.04939096
201	0xbfa6e29c	-1.3037906
202	0xc068a937	-3.635328
203	0x4440b235	770.7845
204	0xc0bad29b	-5.8382087
205	0xbfa155d2	-1.2604315
206	0xbfc46d0e	-1.5345781
207	0xc0052601	-2.0804446
208	0x3fecccc2	1.8499987
209	0xc458a873	-866.632
210	0xbff17f91	-1.8867055
211	0x411dc6d0	9.861038
212	0x3e17444d	0.14772148
213	0xc18806a9	-17.003252
214	0x40794ee1	3.8954394
215	0x41b19d46	22.201794
216	0x42f87450	124.22717
217	0xc313e283	-147.88481
218	0x41bb9ffb	23.453115
219	0x409c9975	4.8937325
220	0x424721dc	49.783066
221	0x3ca513d4	0.020151056
222	0x3de52e15	0.1119043
223	0xbed9b9ac	-0.4252447
224	0x3dc0cad5	0.09413687
225	0x43b05adc	352.70984
226	0xc0f0f356	-7.529704
227	0xc0cee946	-6.4659758
228	0xbf16b72c	-0.5887325
229	0xc111cae9	-9.112039
230	0xbe9df0c2	-0.30847746
231	0xc3a1d189	-323.637
232	0x3ed34f36	0.4127137
233	0x40404694	3.0043077
234	0xbe78e942	-0.24307731
235	0x41f34306	30.407726
236	0x40fabecf	7.835792
237	0x405ca840	3.4477692
238	0xc3103b7d	-144.23238
239	0x42c7b5d9	99.85517
240	0x4207d59b	33.9586
241	0x408b95e6	4.362048
242	0x42ab1e96	85.55974
243	0xbdecd77f	-0.1156454
244	0xbd5000b0	-0.050781906
245	0xbf86d9c6	-1.0535209
246	0x3fe83c62	1.8143427
247	0xc569059a	-3728.35
248	0xc041b251	-3.0265086
249	0xc1203ce3	-10.014865
250	0xc012012a	-2.281321
251	0xc29c2581	-78.07325
252	0xbfa2b18b	-1.2710432
253	0x457bda1b	4029.6316
254	0x403bcbaf	2.9343069
255	0x418536d4	16.651772
