global_models/tsk/TSK_global_model_rules_conseq.npy (npy, 1604 bytes, 1 tensors)

array f4 [9, 41]
4.721932e-05 0.00075486803 0.00014736842 -0.0012297723 -0.0004709255 0.0015061842 -0.0007579968 0.0013424223
-0.00062882283 0.00020956778 -0.0006219259 0.0005558355 -0.0016430247 -0.0016450654 0.00035037042 0.00035877168
0.0032945084 0.003294276 -0.0011181482 -0.0011173616 -0.00070967554 -0.00070387457 0.0017255974 -0.0046184114
0.003316426 -3.909819e-05 9.0955116e-05 0.00020338042 2.7085222e-05 2.828402e-05 6.4919856e-05 -0.00017109355
9.837711e-07 -0.000493486 -2.2436723e-05 -4.989148e-05 -0.00024810238 -0.00011215502 -0.00014723385 -0.0004388418
-0.0031227183 0.00025681322 -0.00015429301 0.0001801299 -0.0012799809 -5.2452015e-05 3.812149e-05 -0.0009056353
0.0013822591 -0.0004568283 -0.00024130195 -0.0005792482 -0.00020348317 -0.00023942585 -0.00023942585 0.00094142184
0.0009412273 0.0051876833 0.0051871 -0.0063446355 -0.006342659 0.0013478576 0.001349899 -0.0009267523
-0.0009267523 -0.0008377441 0.00018323663 0.00012840661 0.00026675191 0.00037152047 -6.815626e-05 0.00030129513
-0.00036988372 7.1547176e-05 -0.00039126186 0.00011785989 1.705354e-05 -0.00054910075 -3.6670343e-05 0.0001926099
0.00052215985 -0.0008377441 0.00043161775 -0.0022301497 3.5593326e-05 -0.0013783491 0.00012528933 -0.0031537365
-0.0009624738 0.0017734115 0.000115329196 0.00012681821 -0.0011874291 -0.006847096 0.0042451653 0.0042451653
-0.0024470794 -0.0024470794 0.0038734982 0.0038734982 -0.0057478263 -0.005749622 0.006676287 0.0066744336
-0.011302983 -0.011302983 0.0065849693 0.00023840122 0.00021580888 -0.0001029758 0.00021580888 0.00047985686
0.00040288537 -0.0007966679 0.00027327362 -0.00031569615 0.00022538633 0.00041430054 -0.0008838172 0.0019231123
0.00032371332 0.0027687203 0.0065849693 -0.00096381275 -0.00029889532 -0.0002883924 -0.0013446143 0.0021856918
-0.0010462129 -0.0008649193 0.0024258085 0.0024085548 0.00010368248 0.0025936617 0.006959138 -0.0012963217
-0.0012963217 -0.0011306828 -0.0011306828 -0.0055301506 -0.0055301506 0.0046850806 0.004686924 0.0044286163
0.0044305194 -0.022843765 -0.022843765 0.016015548 -0.00067502423 -0.00048190638 -0.0017543479 -0.00048190638
-9.538632e-05 -0.0009343172 -0.0017616833 -0.00054089754 -0.0009869764 -0.00049173826 -0.0007114681 0.00027810025
0.006278858 -0.0007228596 0.0027085685 0.016015548 0.006157304 0.0068180873 0.0023857597 -0.0012501084
-0.0022912314 0.007372163 -0.00043553713 0.0017340131 0.0005205574 0.0029932861 0.0052264426 0.07363324
-0.0063879965 -0.0063879965 -0.023069423 -0.023069423 0.009357317 0.009357317 -0.013597171 -0.013597171
0.0037643204 0.0042695566 0.021245988 0.021751225 -0.028466575 -0.008271046 0.003078652 -0.010954623
0.003078652 -0.0023981177 0.006157304 -0.0039006849 0.003078652 -0.0010357541 -0.00040186467 -0.0052660946
-0.002856164 -0.010366902 -0.0032131847 -0.0029057143 -0.02812423 0.0013217953 -0.0017711743 7.985817e-05
-0.001617886 0.0004805446 -0.0019273064 -0.0009221389 0.002085581 -0.00020522879 0.00059354916 0.001181143
0.008644191 0.0006983611 0.0006999406 -0.008128658 -0.008094276 0.010343909 0.010360694 -0.0067039886
-0.0067047696 -0.00027880212 -0.00025318097 -0.0019354314 0.015102762 -0.0149554955 -0.000979673 5.4250857e-05
-0.0012253814 -3.072243e-05 0.00012417317 0.0007551918 -0.001106008 0.0006860978 -0.00036784363 -0.00063670747
0.00038324247 0.00026606265 -0.0023224363 0.00093480473 -0.0010839503 0.002324252 0.0002558279 0.0005530711
0.00036245713 -0.0020561104 -0.0004694169 0.0014924997 -0.0010836786 0.0017220646 -0.000873418 0.0005006821
00000000: 5c0d 4638 56e2 453a e986 1a39 5030 a1ba
00000010: 8de6 f6b9 286b c53a 4eb4 46ba 38f4 af3a
00000020: 96d7 24ba 6cbf 5b39 be08 23ba 7db5 113a
00000030: c35a d7ba 3c9f d7ba ecb1 b739 8519 bc39
00000040: aee8 573b c8e4 573b d48e 92ba 6f74 92ba
00000050: 8509 3aba 3984 38ba 712d e23a 0b56 97bb
00000060: 6558 593b 5dfd 23b8 28bf be38 8442 5539
00000070: 1235 e337 7843 ed37 9525 8838 9367 33b9
00000080: 1e0a 8435 495d 01ba 7f36 bcb7 9242 51b8
00000090: bd13 82b9 c534 ebb8 c962 1ab9 5914 e6b9
000000a0: 85a6 4cbb e3a4 8639 b7c9 21b9 40e1 3c39
000000b0: 08c5 a7ba ecff 5bb8 a3e4 1f38 2868 6dba
000000c0: eb2c b53a 7582 efb9 0006 7db9 b0d8 17ba
000000d0: 195e 55b9 630e 7bb9 630e 7bb9 c0c9 763a
000000e0: b2bc 763a 71fd a93b 8cf8 a93b a9e6 cfbb
000000f0: 14d6 cfbb 99aa b03a 18ef b03a 4bf1 72ba
00000100: 4bf1 72ba 0e9c 5bba 3523 4039 e3a4 0639
00000110: d6da 8b39 a2c8 c239 1def 8eb8 26f7 9d39
00000120: f4ec c1b9 990b 9638 4722 cdb9 8c2b f738
00000130: 330e 8f37 87f1 0fba 7bce 19b8 54f7 4939
00000140: 8ee1 083a 0e9c 5bba c14a e239 b427 12bb
00000150: 0b4a 1538 b9a9 b4ba 1960 0339 ebae 4ebb
00000160: 864e 7cba d171 e83a e4dc f138 81fa 0439
00000170: 82a3 9bba 9b5d e0bb 071b 8b3b 071b 8b3b
00000180: 2e5f 20bb 2e5f 20bb 84da 7d3b 84da 7d3b
00000190: 4358 bcbb 5367 bcbb c1c4 da3b 35b5 da3b
000001a0: 2630 39bc 2630 39bc bac6 d73b 57fb 7939
000001b0: c14a 6239 b6f4 d7b8 c14a 6239 4c95 fb39
000001c0: 5c3a d339 7ad7 50ba 2a46 8f39 0584 a5b9
000001d0: af55 6c39 7a36 d939 f8af 67ba f110 fc3a
000001e0: 11b8 a939 6b73 353b bac6 d73b 61a8 7cba
000001f0: 0db5 9cb9 5f33 97b9 c53d b0ba d33d 0f3b
00000200: 1421 89ba c0bb 62ba 50fa 1e3b d8d8 1d3b
00000210: 1c70 d938 6cfa 293b 7b09 e43b 57e9 a9ba
00000220: 57e9 a9ba 6b33 94ba 6b33 94ba 4436 b5bb
00000230: 4436 b5bb 4e85 993b c594 993b ed1d 913b
00000240: e42d 913b d922 bbbc d922 bbbc 0a33 833c
00000250: 1cf4 30ba 61a8 fcb9 26f2 e5ba 61a8 fcb9
00000260: 240a c8b8 f7ec 74ba 48e8 e6ba 05cb 0dba
00000270: 6f5d 81ba ffe7 00ba d181 3aba fccd 9139
00000280: e1be cd3b 497e 3dba 3d82 313b 0a33 833c
00000290: 36c3 c93b 436a df3b 685a 1c3b adda a3ba
000002a0: 7c28 16bb 2f92 f13b ce58 e4b9 d347 e33a
000002b0: 0476 083a 022b 443b 9442 ab3b 06cd 963d
000002c0: 6652 d1bb 6652 d1bb 16fc bcbc 16fc bcbc
000002d0: 6f4f 193c 6f4f 193c abc6 5ebc abc6 5ebc
000002e0: d1b2 763b a3e7 8b3b 110c ae3c a02f b23c
000002f0: bc32 e9bc 4883 07bc 36c3 493b 057b 33bc
00000300: 36c3 493b bd29 1dbb 36c3 c93b a2a2 7fbb
00000310: 36c3 493b 24c2 87ba 5db1 d2b9 348f acbb
00000320: 7b2e 3bbb f0d9 29bc 4b94 52bb cc6d 3ebb
00000330: c964 e6bc 1740 ad3a bf26 e8ba 8779 a738
00000340: 3f0f d4ba 9bf1 fb39 ac9d fcba b2bb 71ba
00000350: 3eae 083b af32 57b9 6998 1b3a 95d0 9a3a
00000360: 5da0 0d3c 3812 373a 387c 373a 102e 05bc
00000370: db9d 04bc 8079 293c e6bf 293c 22ad dbbb
00000380: afb3 dbbb 302c 92b9 60bd 84b9 4dae fdba
00000390: 9371 773c e507 75bc 5f68 80ba 6a8b 6338
000003a0: fa9c a0ba f5db 00b8 7b34 0239 10f8 453a
000003b0: 78f7 90ba 3edb 333a 23db c0b9 b7e8 26ba
000003c0: efed c839 537e 8b39 0434 18bb af0d 753a
000003d0: 5613 8eba 7a52 183b a420 8639 f9fb 103a
000003e0: 2c08 be39 cfbf 06bb 121c f6b9 fb9f c33a
000003f0: 380a 8eba e6b6 e13a 17f6 64ba 3540 033a
